…
2018-08-27 17:03:54,176:INFO: num_epochs: 400
2018-08-27 17:03:54,176:INFO: model_version: HCN
2018-08-27 17:03:54,176:INFO: cuda: True
2018-08-27 17:03:54,177:INFO: save_summary_steps: 1
2018-08-27 17:03:54,177:INFO: start_epoch: 0
2018-08-27 17:03:54,177:INFO: restore_file: None
2018-08-27 17:03:54,177:INFO: scheduler_gamma: 0.1
2018-08-27 17:03:54,177:INFO: dataset_name: NTU-RGB-D-CV
2018-08-27 17:03:54,177:INFO: scheduler_gamma3: 0.5
2018-08-27 17:03:54,177:INFO: lr_decay_type: exp
2018-08-27 17:03:54,177:INFO: optimizer: Adam
2018-08-27 17:03:56,940:INFO: HCN(
  (conv1): Sequential(
    (0): Conv2d(3, 64, kernel_size=(1, 1), stride=(1, 1))
    (1): ReLU()
  )
  (conv2): Conv2d(64, 32, kernel_size=(3, 1), stride=(1, 1), padding=(1, 0))
  (conv3): Sequential(
    (0): Conv2d(25, 32, kernel_size=(3, 3), stride=(1, 1), padding=(1, 1))
    (1): MaxPool2d(kernel_size=2, stride=2, padding=0, dilation=1, ceil_mode=False)
  )
  (conv4): Sequential(
    (0): Conv2d(32, 64, kernel_size=(3, 3), stride=(1, 1), padding=(1, 1))
    (1): Dropout2d(p=0.5)
    (2): MaxPool2d(kernel_size=2, stride=2, padding=0, dilation=1, ceil_mode=False)
  )
  (conv1m): Sequential(
    (0): Conv2d(3, 64, kernel_size=(1, 1), stride=(1, 1))
    (1): ReLU()
  )
  (conv2m): Conv2d(64, 32, kernel_size=(3, 1), stride=(1, 1), padding=(1, 0))
  (conv3m): Sequential(
    (0): Conv2d(25, 32, kernel_size=(3, 3), stride=(1, 1), padding=(1, 1))
    (1): MaxPool2d(kernel_size=2, stride=2, padding=0, dilation=1, ceil_mode=False)
  )
  (conv4m): Sequential(
    (0): Conv2d(32, 64, kernel_size=(3, 3), stride=(1, 1), padding=(1, 1))
    (1): Dropout2d(p=0.5)
    (2): MaxPool2d(kernel_size=2, stride=2, padding=0, dilation=1, ceil_mode=False)
  )
  (conv5): Sequential(
    (0): Conv2d(128, 128, kernel_size=(3, 3), stride=(1, 1), padding=(1, 1))
    (1): ReLU()
    (2): Dropout2d(p=0.5)
    (3): MaxPool2d(kernel_size=2, stride=2, padding=0, dilation=1, ceil_mode=False)
  )
  (conv6): Sequential(
    (0): Conv2d(128, 256, kernel_size=(3, 3), stride=(1, 1), padding=(1, 1))
    (1): ReLU()
    (2): Dropout2d(p=0.5)
    (3): MaxPool2d(kernel_size=2, stride=2, padding=0, dilation=1, ceil_mode=False)
  )
  (fc7): Sequential(
    (0): Linear(in_features=1024, out_features=256, bias=True)
    (1): ReLU()
    (2): Dropout2d(p=0.5)
  )
  (fc8): Linear(in_features=256, out_features=60, bias=True)
)
2018-08-27 17:03:56,941:INFO: Loading the datasets...
2018-08-27 17:04:58,207:INFO: - done.
2018-08-27 17:04:58,208:INFO: Starting training for 400 epoch(s)
2018-08-27 17:04:58,208:INFO: lr decay:exp
2018-08-27 17:04:58,208:INFO: Epoch 1/400
2018-08-27 17:05:10,897:INFO: - Train metrics: accuracytop1: 0.086 ; accuracytop5: 0.305 ; ls_CE: 3.513 ; loss: 3.513 ; ls_all: 3.513
…
