…
2018-08-27 17:06:34,543:INFO: num_epochs: 400
2018-08-27 17:06:34,543:INFO: model_args: {'num_joint': 25, 'num_class': 60, 'window_size': 64, 'num_person': 2, 'in_channel': 3, 'out_channel': 64}
2018-08-27 17:06:34,543:INFO: save_summary_steps: 1
2018-08-27 17:06:34,543:INFO: lr_step: [100, 160, 200]
2018-08-27 17:06:34,543:INFO: experiment_path: ./experiments/NTU-RGB-D-CV/HCN02
2018-08-27 17:06:34,543:INFO: save_best_ever_n_epoch: 50
2018-08-27 17:06:34,543:INFO: gpu_id: 0
2018-08-27 17:06:34,544:INFO: mode: train
2018-08-27 17:06:34,544:INFO: weight_decay: 0.0001
2018-08-27 17:06:37,863:INFO: HCN(
  (conv1): Sequential(
    (0): Conv2d(3, 64, kernel_size=(1, 1), stride=(1, 1))
    (1): ReLU()
  )
  (conv2): Conv2d(64, 64, kernel_size=(3, 1), stride=(1, 1), padding=(1, 0))
  (conv3): Sequential(
    (0): Conv2d(25, 32, kernel_size=(3, 3), stride=(1, 1), padding=(1, 1))
    (1): MaxPool2d(kernel_size=2, stride=2, padding=0, dilation=1, ceil_mode=False)
  )
  (conv4): Sequential(
    (0): Conv2d(32, 64, kernel_size=(3, 3), stride=(1, 1), padding=(1, 1))
    (1): Dropout2d(p=0.5)
    (2): MaxPool2d(kernel_size=2, stride=2, padding=0, dilation=1, ceil_mode=False)
  )
  (conv1m): Sequential(
    (0): Conv2d(3, 64, kernel_size=(1, 1), stride=(1, 1))
    (1): ReLU()
  )
  (conv2m): Conv2d(64, 64, kernel_size=(3, 1), stride=(1, 1), padding=(1, 0))
  (conv3m): Sequential(
    (0): Conv2d(25, 32, kernel_size=(3, 3), stride=(1, 1), padding=(1, 1))
    (1): MaxPool2d(kernel_size=2, stride=2, padding=0, dilation=1, ceil_mode=False)
  )
  (conv4m): Sequential(
    (0): Conv2d(32, 64, kernel_size=(3, 3), stride=(1, 1), padding=(1, 1))
    (1): Dropout2d(p=0.5)
    (2): MaxPool2d(kernel_size=2, stride=2, padding=0, dilation=1, ceil_mode=False)
  )
  (conv5): Sequential(
    (0): Conv2d(128, 128, kernel_size=(3, 3), stride=(1, 1), padding=(1, 1))
    (1): ReLU()
    (2): Dropout2d(p=0.5)
    (3): MaxPool2d(kernel_size=2, stride=2, padding=0, dilation=1, ceil_mode=False)
  )
  (conv6): Sequential(
    (0): Conv2d(128, 256, kernel_size=(3, 3), stride=(1, 1), padding=(1, 1))
    (1): ReLU()
    (2): Dropout2d(p=0.5)
    (3): MaxPool2d(kernel_size=2, stride=2, padding=0, dilation=1, ceil_mode=False)
  )
  (fc7): Sequential(
    (0): Linear(in_features=4096, out_features=512, bias=True)
    (1): ReLU()
    (2): Dropout2d(p=0.5)
  )
  (fc8): Linear(in_features=512, out_features=60, bias=True)
)
2018-08-27 17:06:37,864:INFO: Loading the datasets...
2018-08-27 17:07:16,367:INFO: - done.
2018-08-27 17:07:16,367:INFO: Starting training for 400 epoch(s)
2018-08-27 17:07:16,367:INFO: lr decay:exp
2018-08-27 17:07:16,367:INFO: Epoch 1/400
2018-08-27 17:07:53,562:INFO: - Train metrics: accuracytop1: 0.068 ; ls_CE: 3.742 ; loss: 3.742 ; accuracytop5: 0.208 ; ls_all: 3.742
…
