…
2018-08-27 17:06:38,305:INFO: dataset_name: NTU-RGB-D-CS
2018-08-27 17:06:38,305:INFO: seed: 0
2018-08-27 17:06:38,305:INFO: scheduler_gamma: 0.1
2018-08-27 17:06:38,305:INFO: clip: 0.5
2018-08-27 17:06:38,305:INFO: restore_file: None
2018-08-27 17:06:38,305:INFO: lr_step: [100, 160, 200]
2018-08-27 17:06:38,305:INFO: batch_size: 32
2018-08-27 17:06:38,305:INFO: num_workers: 4
2018-08-27 17:06:38,305:INFO: num_epochs: 400
2018-08-27 17:06:38,305:INFO: loss_args: {'type': 'CE'}
2018-08-27 17:06:38,305:INFO: lr: 0.001
2018-08-27 17:06:38,305:INFO: start_epoch: 0
2018-08-27 17:06:41,573:INFO: HCN(
  (conv1): Sequential(
    (0): Conv2d(3, 64, kernel_size=(1, 1), stride=(1, 1))
    (1): ReLU()
  )
  (conv2): Conv2d(64, 64, kernel_size=(3, 1), stride=(1, 1), padding=(1, 0))
  (conv3): Sequential(
    (0): Conv2d(25, 32, kernel_size=(3, 3), stride=(1, 1), padding=(1, 1))
    (1): MaxPool2d(kernel_size=2, stride=2, padding=0, dilation=1, ceil_mode=False)
  )
  (conv4): Sequential(
    (0): Conv2d(32, 64, kernel_size=(3, 3), stride=(1, 1), padding=(1, 1))
    (1): Dropout2d(p=0.5)
    (2): MaxPool2d(kernel_size=2, stride=2, padding=0, dilation=1, ceil_mode=False)
  )
  (conv1m): Sequential(
    (0): Conv2d(3, 64, kernel_size=(1, 1), stride=(1, 1))
    (1): ReLU()
  )
  (conv2m): Conv2d(64, 64, kernel_size=(3, 1), stride=(1, 1), padding=(1, 0))
  (conv3m): Sequential(
    (0): Conv2d(25, 32, kernel_size=(3, 3), stride=(1, 1), padding=(1, 1))
    (1): MaxPool2d(kernel_size=2, stride=2, padding=0, dilation=1, ceil_mode=False)
  )
  (conv4m): Sequential(
    (0): Conv2d(32, 64, kernel_size=(3, 3), stride=(1, 1), padding=(1, 1))
    (1): Dropout2d(p=0.5)
    (2): MaxPool2d(kernel_size=2, stride=2, padding=0, dilation=1, ceil_mode=False)
  )
  (conv5): Sequential(
    (0): Conv2d(128, 128, kernel_size=(3, 3), stride=(1, 1), padding=(1, 1))
    (1): ReLU()
    (2): Dropout2d(p=0.5)
    (3): MaxPool2d(kernel_size=2, stride=2, padding=0, dilation=1, ceil_mode=False)
  )
  (conv6): Sequential(
    (0): Conv2d(128, 256, kernel_size=(3, 3), stride=(1, 1), padding=(1, 1))
    (1): ReLU()
    (2): Dropout2d(p=0.5)
    (3): MaxPool2d(kernel_size=2, stride=2, padding=0, dilation=1, ceil_mode=False)
  )
  (fc7): Sequential(
    (0): Linear(in_features=4096, out_features=512, bias=True)
    (1): ReLU()
    (2): Dropout2d(p=0.5)
  )
  (fc8): Linear(in_features=512, out_features=60, bias=True)
)
2018-08-27 17:06:41,574:INFO: Loading the datasets...
2018-08-27 17:07:27,584:INFO: - done.
2018-08-27 17:07:27,586:INFO: Starting training for 400 epoch(s)
2018-08-27 17:07:27,586:INFO: lr decay:exp
2018-08-27 17:07:27,586:INFO: Epoch 1/400
2018-08-27 17:08:07,580:INFO: - Train metrics: accuracytop1: 0.089 ; accuracytop5: 0.274 ; ls_CE: 3.587 ; loss: 3.587 ; ls_all: 3.587
…
