…
2018-10-10 18:56:48,563:INFO: model_args: {'in_channel': 3, 'num_person': 2, 'window_size': 64, 'num_joint': 25, 'out_channel': 64, 'num_class': 60}
2018-10-10 18:56:48,563:INFO: save_best_ever_n_epoch: 50
2018-10-10 18:56:48,563:INFO: cuda: True
2018-10-10 18:56:48,563:INFO: weight_decay: 0.0001
2018-10-10 18:56:48,564:INFO: lr_decay_type: exp
2018-10-10 18:56:48,564:INFO: test_feeder_args: {'data_path': None, 'random_shift': False, 'origin_transfer': 0, 'random_move': False, 'label_path': None, 'normalization': False, 'crop_resize': True, 'debug': False, 'window_size': 64, 'p_interval': [0.95], 'random_valid_choose': False}
2018-10-10 18:56:48,564:INFO: restore_file: None
2018-10-10 18:56:56,616:INFO: HCN(
  (conv1): Sequential(
    (0): Conv2d(3, 64, kernel_size=(1, 1), stride=(1, 1))
    (1): ReLU()
  )
  (conv2): Conv2d(64, 64, kernel_size=(3, 1), stride=(1, 1), padding=(1, 0))
  (conv3): Sequential(
    (0): Conv2d(25, 32, kernel_size=(3, 3), stride=(1, 1), padding=(1, 1))
    (1): MaxPool2d(kernel_size=2, stride=2, padding=0, dilation=1, ceil_mode=False)
  )
  (conv4): Sequential(
    (0): Conv2d(32, 64, kernel_size=(3, 3), stride=(1, 1), padding=(1, 1))
    (1): Dropout2d(p=0.5)
    (2): MaxPool2d(kernel_size=2, stride=2, padding=0, dilation=1, ceil_mode=False)
  )
  (conv1m): Sequential(
    (0): Conv2d(3, 64, kernel_size=(1, 1), stride=(1, 1))
    (1): ReLU()
  )
  (conv2m): Conv2d(64, 64, kernel_size=(3, 1), stride=(1, 1), padding=(1, 0))
  (conv3m): Sequential(
    (0): Conv2d(25, 32, kernel_size=(3, 3), stride=(1, 1), padding=(1, 1))
    (1): MaxPool2d(kernel_size=2, stride=2, padding=0, dilation=1, ceil_mode=False)
  )
  (conv4m): Sequential(
    (0): Conv2d(32, 64, kernel_size=(3, 3), stride=(1, 1), padding=(1, 1))
    (1): Dropout2d(p=0.5)
    (2): MaxPool2d(kernel_size=2, stride=2, padding=0, dilation=1, ceil_mode=False)
  )
  (conv5): Sequential(
    (0): Conv2d(128, 128, kernel_size=(3, 3), stride=(1, 1), padding=(1, 1))
    (1): ReLU()
    (2): Dropout2d(p=0.5)
    (3): MaxPool2d(kernel_size=2, stride=2, padding=0, dilation=1, ceil_mode=False)
  )
  (conv6): Sequential(
    (0): Conv2d(128, 256, kernel_size=(3, 3), stride=(1, 1), padding=(1, 1))
    (1): ReLU()
    (2): Dropout2d(p=0.5)
    (3): MaxPool2d(kernel_size=2, stride=2, padding=0, dilation=1, ceil_mode=False)
  )
  (fc7): Sequential(
    (0): Linear(in_features=4096, out_features=512, bias=True)
    (1): ReLU()
    (2): Dropout2d(p=0.5)
  )
  (fc8): Linear(in_features=512, out_features=60, bias=True)
)
2018-10-10 18:56:56,616:INFO: Loading the datasets...
2018-10-10 18:57:59,725:INFO: - done.
2018-10-10 18:57:59,727:INFO: Starting training for 400 epoch(s)
2018-10-10 18:57:59,727:INFO: lr decay:exp
2018-10-10 18:57:59,727:INFO: Epoch 1/400
2018-10-10 18:58:37,901:INFO: - Train metrics: accuracytop5: 0.312 ; accuracytop1: 0.104 ; ls_CE: 3.487 ; ls_all: 3.487 ; loss: 3.487
…
