…
2018-08-27 17:03:57,922:INFO: dataset_dir: /data0/
2018-08-27 17:03:57,922:INFO: patience: 20
2018-08-27 17:03:57,922:INFO: seed: 0
2018-08-27 17:03:57,922:INFO: mode: train
2018-08-27 17:03:57,922:INFO: num_workers: 4
2018-08-27 17:03:57,922:INFO: scheduler_gamma2: 0.99
2018-08-27 17:03:57,922:INFO: lr_step: [100, 160, 200]
2018-08-27 17:03:57,922:INFO: restore_file: None
2018-08-27 17:03:57,922:INFO: save_summary_steps: 1
2018-08-27 17:03:57,922:INFO: save_best_ever_n_epoch: 50
2018-08-27 17:03:57,922:INFO: gpu_id: 0
2018-08-27 17:03:57,922:INFO: clip: 0.5
2018-08-27 17:04:00,679:INFO: HCN(
  (conv1): Sequential(
    (0): Conv2d(3, 64, kernel_size=(1, 1), stride=(1, 1))
    (1): ReLU()
  )
  (conv2): Conv2d(64, 32, kernel_size=(3, 1), stride=(1, 1), padding=(1, 0))
  (conv3): Sequential(
    (0): Conv2d(25, 32, kernel_size=(3, 3), stride=(1, 1), padding=(1, 1))
    (1): MaxPool2d(kernel_size=2, stride=2, padding=0, dilation=1, ceil_mode=False)
  )
  (conv4): Sequential(
    (0): Conv2d(32, 64, kernel_size=(3, 3), stride=(1, 1), padding=(1, 1))
    (1): Dropout2d(p=0.5)
    (2): MaxPool2d(kernel_size=2, stride=2, padding=0, dilation=1, ceil_mode=False)
  )
  (conv1m): Sequential(
    (0): Conv2d(3, 64, kernel_size=(1, 1), stride=(1, 1))
    (1): ReLU()
  )
  (conv2m): Conv2d(64, 32, kernel_size=(3, 1), stride=(1, 1), padding=(1, 0))
  (conv3m): Sequential(
    (0): Conv2d(25, 32, kernel_size=(3, 3), stride=(1, 1), padding=(1, 1))
    (1): MaxPool2d(kernel_size=2, stride=2, padding=0, dilation=1, ceil_mode=False)
  )
  (conv4m): Sequential(
    (0): Conv2d(32, 64, kernel_size=(3, 3), stride=(1, 1), padding=(1, 1))
    (1): Dropout2d(p=0.5)
    (2): MaxPool2d(kernel_size=2, stride=2, padding=0, dilation=1, ceil_mode=False)
  )
  (conv5): Sequential(
    (0): Conv2d(128, 128, kernel_size=(3, 3), stride=(1, 1), padding=(1, 1))
    (1): ReLU()
    (2): Dropout2d(p=0.5)
    (3): MaxPool2d(kernel_size=2, stride=2, padding=0, dilation=1, ceil_mode=False)
  )
  (conv6): Sequential(
    (0): Conv2d(128, 256, kernel_size=(3, 3), stride=(1, 1), padding=(1, 1))
    (1): ReLU()
    (2): Dropout2d(p=0.5)
    (3): MaxPool2d(kernel_size=2, stride=2, padding=0, dilation=1, ceil_mode=False)
  )
  (fc7): Sequential(
    (0): Linear(in_features=1024, out_features=256, bias=True)
    (1): ReLU()
    (2): Dropout2d(p=0.5)
  )
  (fc8): Linear(in_features=256, out_features=60, bias=True)
)
2018-08-27 17:04:00,680:INFO: Loading the datasets...
2018-08-27 17:04:20,575:INFO: - done.
2018-08-27 17:04:20,575:INFO: Starting training for 400 epoch(s)
2018-08-27 17:04:20,576:INFO: lr decay:exp
2018-08-27 17:04:20,576:INFO: Epoch 1/400
2018-08-27 17:04:34,180:INFO: - Train metrics: accuracytop5: 0.282 ; loss: 3.588 ; accuracytop1: 0.078 ; ls_CE: 3.588 ; ls_all: 3.588
…
