…
2021-04-12 18:20:43,620:INFO: test_feeder_args: {'data_path': None, 'label_path': None, 'random_valid_choose': False, 'random_shift': False, 'random_move': False, 'window_size': 16, 'normalization': True, 'debug': False, 'origin_transfer': -5, 'crop_resize': True, 'p_interval': [0.95]}
2021-04-12 18:20:43,620:INFO: model_args: {'in_channel': 3, 'out_channel': 32, 'window_size': 16, 'num_joint': 15, 'num_person': 2, 'num_class': 8, 'fc7_channel': 64, 'bypass_conv4': True}
2021-04-12 18:20:43,620:INFO: loss_args: {'type': 'CE'}
2021-04-12 18:20:43,620:INFO: dataset_dir: ./data0/SBU-RGB-D/FOLD_1/
2021-04-12 18:20:43,620:INFO: dataset_name: SBU-RGB-D
2021-04-12 18:20:43,620:INFO: mode: test
2021-04-12 18:20:43,624:INFO: HCN(
  (conv1): Sequential(
    (0): Conv2d(3, 32, kernel_size=(1, 1), stride=(1, 1))
    (1): ReLU()
  )
  (conv2): Conv2d(32, 16, kernel_size=(3, 1), stride=(1, 1), padding=(1, 0))
  (conv3): Sequential(
    (0): Conv2d(15, 16, kernel_size=(3, 3), stride=(1, 1), padding=(1, 1))
    (1): MaxPool2d(kernel_size=2, stride=2, padding=0, dilation=1, ceil_mode=False)
  )
  (conv1m): Sequential(
    (0): Conv2d(3, 32, kernel_size=(1, 1), stride=(1, 1))
    (1): ReLU()
  )
  (conv2m): Conv2d(32, 16, kernel_size=(3, 1), stride=(1, 1), padding=(1, 0))
  (conv3m): Sequential(
    (0): Conv2d(15, 16, kernel_size=(3, 3), stride=(1, 1), padding=(1, 1))
    (1): MaxPool2d(kernel_size=2, stride=2, padding=0, dilation=1, ceil_mode=False)
  )
  (conv5): Sequential(
    (0): Conv2d(32, 32, kernel_size=(3, 3), stride=(1, 1), padding=(1, 1))
    (1): ReLU()
    (2): Dropout2d(p=0.5, inplace=False)
    (3): MaxPool2d(kernel_size=2, stride=2, padding=0, dilation=1, ceil_mode=False)
  )
  (conv6): Sequential(
    (0): Conv2d(32, 64, kernel_size=(3, 3), stride=(1, 1), padding=(1, 1))
    (1): ReLU()
    (2): Dropout2d(p=0.5, inplace=False)
    (3): MaxPool2d(kernel_size=2, stride=2, padding=0, dilation=1, ceil_mode=False)
  )
  (fc7): Sequential(
    (0): Linear(in_features=256, out_features=64, bias=True)
    (1): ReLU()
    (2): Dropout2d(p=0.5, inplace=False)
  )
  (fc8): Linear(in_features=64, out_features=8, bias=True)
)
2021-04-12 18:20:43,624:INFO: Loading the datasets...
2021-04-12 18:20:43,668:INFO: - done.
2021-04-12 18:20:43,669:INFO: Restoring parameters from ./experiments/SBU-RGB-D/HCN01/checkpoint/best.pth.tar
2021-04-12 18:20:43,859:INFO: - Eval metrics : accuracytop1: 1.000 ; accuracytop5: 1.000 ; loss: 0.002 ; ls_all: 0.002 ; ls_CE: 0.002
2021-04-12 18:20:43,951:INFO: - Eval metrics : accuracytop1: 0.982 ; accuracytop5: 1.000 ; loss: 0.100 ; ls_all: 0.100 ; ls_CE: 0.100
